…
2022-06-26 22:49:03.458930: I tensorflow/stream_executor/cuda/cuda_diagnostics.cc:176] hostname: DESKTOP-ROF5BIA
2022-06-26 22:49:03.459321: I tensorflow/core/platform/cpu_feature_guard.cc:151] This TensorFlow binary is optimized with oneAPI Deep Neural Network Library (oneDNN) to use the following CPU instructions in performance-critical operations:  AVX AVX2
To enable them in other operations, rebuild TensorFlow with the appropriate compiler flags.
Model: "sequential"
_________________________________________________________________
 Layer (type)                Output Shape              Param #
=================================================================
 dense (Dense)               (None, 256)               7936

 dense_1 (Dense)             (None, 256)               65792

 dropout (Dropout)           (None, 256)               0

 dense_2 (Dense)             (None, 256)               65792

 dropout_1 (Dropout)         (None, 256)               0

 dense_3 (Dense)             (None, 256)               65792

 dropout_2 (Dropout)         (None, 256)               0

 dense_4 (Dense)             (None, 1)                 257

=================================================================
Total params: 205,569
Trainable params: 205,569
Non-trainable params: 0
_________________________________________________________________
None
Decay steps: 4
Decay rate: 0.9982980113898524
Restoring model weights from the end of the best epoch: 73.
Epoch 173: early stopping

// TEST
(env) D:\Development\Git\ga-surrogate-rosenbrock\src>tests.py
…
